weights/cart-pole-v1.pt (torch, 3517 bytes, 4 tensors)

stack.0.weight f4 [64, 4]
0.32729125 0.5989999 2.1509616 0.81717753 -0.056516204 0.13788357 -0.2792752 0.2596116
-0.008322293 -0.16572663 0.5040086 -0.05060971 0.17385602 -0.3043988 -2.1099968 -0.13416858
0.3836333 0.2424157 1.8346955 0.38409248 -0.08601155 -0.097386174 0.16549863 0.44269562
-0.38128626 -0.112674184 -1.891378 -1.0626379 0.35452995 -0.91992646 -0.34919953 -0.1835998
0.40222833 0.33492956 1.9795367 0.5637739 0.022125956 0.47975206 2.2025356 -0.09722205
0.209962 0.3983717 2.7004595 0.68063265 0.42156866 0.268524 2.9710736 0.12946086
0.11614078 -0.48712394 -2.7541983 -0.16227116 0.00183703 0.9718849 0.6163006 2.7663207
0.021911714 -0.14054838 -1.7242258 -0.47314793 0.0071041835 -0.31599364 0.14255345 -0.19585726
-0.04834325 -0.17574339 -1.6081488 -0.5760814 0.025256863 0.24187689 2.5707383 0.44063535
0.25201744 -0.56028765 -2.6850882 -0.02040349 -0.030502336 0.8606581 0.76680285 2.4699237
-0.31847924 -0.44141188 0.22633016 -0.06733022 0.10584156 -0.31331584 -1.8561978 -0.398462
-0.25327587 -0.2243944 -2.3178186 -0.916208 0.04339523 0.1546415 -0.21131746 -0.26086113
0.06763179 0.01355663 2.262419 -1.7436467 -0.27213985 0.07573307 -0.15275925 -0.35322776
-0.063599035 -0.25790626 -2.4244573 -0.28649533 -1.0872356 0.39690995 2.008599 0.72548866
0.42137396 -0.25143197 -3.1540425 0.5563044 0.3074156 -0.5341769 2.7312233 -1.6314975
-0.00514479 -0.22869596 0.045438547 -0.27263504 -0.32943928 -0.34430683 -2.6925907 -1.0008329
0.28360784 0.14860772 2.2639365 0.1587844 -0.9421071 0.020639835 -1.6099467 -1.3377635
-0.5407918 -0.43985054 0.54331005 0.012533328 0.48208848 0.036017578 2.9779413 -0.25187624
-0.10601281 0.10601272 0.2003868 0.37940723 0.49672768 -0.093556084 3.37717 -2.0913548
-0.06983037 -0.20418298 -1.709113 -0.6768468 0.34706622 0.1447868 2.51128 -1.191961
0.42330247 0.06774935 2.4752855 -1.5700567 0.19035044 0.32225743 1.9604356 0.58943754
0.30671144 -0.35024014 -3.49337 0.5557821 0.0046519204 0.03346444 0.22511275 -0.42125207
-1.4463683 0.3005871 -0.012047402 -1.7970104 -0.08833176 0.14834273 0.20647748 -0.032473397
0.34873977 0.39738 2.098237 0.09860989 -0.0070133824 0.031747777 -0.08413922 -0.1700962
0.4246746 0.51161265 1.4207886 -0.3299183 0.049957193 0.27094993 2.3495047 0.44135344
-0.42623803 -0.124322094 0.33960578 0.12470893 -0.25162885 -0.22241443 -3.0582492 -0.96912843
-0.11087972 0.6684261 0.93185866 2.5750768 -0.27701554 0.61981535 0.39159024 1.8040241
0.04473033 0.10272232 2.0893064 0.07436981 -0.53722584 -0.015188032 -1.5850991 -0.94786096
-0.32875356 0.34081703 0.24027435 0.1823371 -0.6974775 0.45257342 1.6651661 -0.06240275
-0.36390227 0.13787846 0.09454546 -0.2846574 -0.20903699 -0.32281747 -1.8288535 -0.9245565
-0.020288281 -0.3947969 -2.2619119 -0.29307282 -0.07408613 -0.062410526 1.0400207 0.37094644
-0.16678774 -0.03572933 -1.6931448 -0.40951654 -0.39389753 -0.022032999 -3.1068044 -1.090881
00000000: b892 a73e 0f58 193f 5ba9 0940 8c32 513f
00000010: 897d 67bd 5a31 0d3e 29fd 8ebe d0eb 843e
00000020: 3a5a 08bc 3eb4 29be b506 013f 214c 4fbd
00000030: 5007 323e 29da 9bbe 300a 07c0 7d63 09be
00000040: 956b c43e d23b 783e 4dd7 ea3f c5a7 c43e
00000050: d326 b0bd 6772 c7bd 7978 293e 00a9 e23e
00000060: f437 c3be b9c1 e6bd ad18 f2bf 8504 88bf
00000070: f384 b53e 4d80 6bbf 48ca b2be 9601 3cbe
00000080: dff0 cd3e e37b ab3e 7561 fd3f 7c53 103f
00000090: 7e41 b53c 10a2 f53e 58f6 0c40 5b1c c7bd
000000a0: 4700 573e 60f7 cb3e 54d4 2c40 f13d 2e3f
000000b0: d9d7 d73e fa7b 893e 1226 3e40 6391 043e
000000c0: 38db ed3d 4f68 f9be c944 30c0 692a 26be
000000d0: 80c8 f03a 73cd 783f e0c5 1d3f 660b 3140
000000e0: 3280 b33c eaeb 0fbe 6eb3 dcbf 7240 f2be
000000f0: 36ca e83b ebc9 a1be 88f9 113e ce8e 48be
00000100: 9203 46bd 13f6 33be d2d7 cdbf 127a 13bf
00000110: 7be7 ce3c 93ae 773e fa86 2440 f59a e13e
00000120: 6e08 813e 036f 0fbf 7cd8 2bc0 3825 a7bc
00000130: 09e0 f9bc 1754 5c3f 314d 443f 3b13 1e40
00000140: b60f a3be bd00 e2be 18c3 673e 6de4 89bd
00000150: 76c3 d83d ef6a a0be e497 edbf 3603 ccbe
00000160: 60ad 81be a5c7 65be 2457 14c0 9c8c 6abf
00000170: 32bf 313d 575a 1e3e 9b63 58be 978f 85be
00000180: 8982 8a3d a11c 5e3c 79cb 1040 d12f dfbf
00000190: ea55 8bbe f119 9b3d ec6c 1cbe 45da b4be
000001a0: 3640 82bd 4a0c 84be 4f2a 1bc0 84af 92be
000001b0: 892a 8bbf c837 cb3e e38c 0040 a0b9 393f
000001c0: 54be d73e b1bb 80be d5db 49c0 f769 0e3f
000001d0: 9465 9d3e d1bf 08bf 5dcc 2e40 e9d4 d0bf
000001e0: a095 a8bb 462f 6abe c51d 3a3d d296 8bbe
000001f0: 44ac a8be fc48 b0be 6853 2cc0 4b1b 80bf
00000200: 0c35 913e 9f2c 183e 56e4 1040 6198 223e
00000210: ee2d 71bf df14 a93c bc12 cebf d63b abbf
00000220: 5571 0abf 1734 e1be 5e16 0b3f 9658 4d3c
00000230: 4dd4 f63e 2b87 133d 9796 3e40 ecf5 80be
00000240: 3e1d d9bd 321d d93d 3332 4d3e aa41 c23e
00000250: 1753 fe3e 559a bfbd 8e23 5840 c2d8 05c0
00000260: 3a03 8fbd 5815 51be 37c4 dabf d545 2dbf
00000270: aab2 b13e fe42 143e d0b8 2040 2e92 98bf
00000280: 1abb d83e 2cc0 8a3d 146b 1e40 9ef7 c8bf
00000290: 3aeb 423e edfe a43e 8eef fa3f 61e5 163f
000002a0: 4809 9d3e ad52 b3be 6093 5fc0 bc47 0e3f
000002b0: 236f 983b 0212 093d f583 663e 5aae d7be
000002c0: 9922 b9bf 8de6 993e 7762 45bc 7004 e6bf
000002d0: 48e7 b4bd 28e7 173e d56e 533e d302 05bd
000002e0: 058e b23e 6475 cb3e 8449 0640 fbf3 c93d
000002f0: 84d0 e5bb f509 023d 2f51 acbd b32d 2ebe
00000300: f36e d93e 0cf9 023f 67dc b53f 0deb a8be
00000310: ea9f 4c3d f3b9 8a3e 495e 1640 14f9 e13e
00000320: df3b dabe 959c febd cfe0 ad3e 6567 ff3d
00000330: 7fd5 80be 9cc0 63be 5bba 43c0 cd18 78bf
00000340: e814 e3bd f91d 2b3f 4a8e 6e3f 0fce 2440
00000350: fbd4 8dbe 38ac 1e3f 847e c83e 43ea e63f
00000360: 2737 373d 1460 d23d 32b7 0540 334f 983d
00000370: a287 09bf 39d7 78bc 87e4 cabf 04a7 72bf
00000380: 6352 a8be 927f ae3e 7b0a 763e 94b6 3a3e
00000390: e38d 32bf b4b7 e73e 2a24 d53f 079a 7fbd
000003a0: 6651 babe 0330 0d3e 0da1 c13d 9dbe 91be
000003b0: cb0d 56be 5548 a5be df17 eabf bcaf 6cbf
000003c0: 9c33 a6bc d222 cabe 2ac3 10c0 a40d 96be
000003d0: 78ba 97bd 2ea2 7fbd 661f 853f b1ec bd3e
000003e0: 68ca 2abe eb58 12bd f8b8 d8bf 27ac d1be
000003f0: f0ac c9be 8c7e b4bc e2d5 46c0 fda1 8bbf

stack.0.bias f4 [64]
0.18739532 -0.37817374 -0.088238955 0.10920815 0.20432773 -0.35326385 1.1692884 -0.33964354
0.15524751 0.13962261 0.11896111 -0.08630034 0.50962883 -0.3604942 0.4345159 -0.53772557
0.46332338 0.41993472 0.5120097 -0.23970145 -0.38966253 0.38236177 0.77025586 -0.70750546
-0.49155816 -0.36871243 0.54661196 -0.3076019 -0.30479884 -0.12913038 -0.55917275 0.89986193
0.12009917 0.657554 -0.30265746 -0.040954255 -0.49287915 -0.3701441 0.5177357 -0.1987259
-0.32728225 0.1074002 -0.3509444 -0.50543237 1.0593426 -0.32041728 -0.122637294 -0.28582636
-0.46011835 0.31056046 -0.28542382 0.7870571 -0.2469452 -0.33048767 0.19925587 0.44740647
-0.5695057 0.3472642 0.3058988 0.6612503 0.44175565 0.2838137 0.49853712 0.66083187
00000000: 8fe4 3f3e fd9f c1be a0b6 b4bd 86a8 df3d
00000010: 4a3b 513e 00df b4be 3eab 953f c2e5 adbe
00000020: 34f9 1e3e 3bf9 0e3e e2a1 f33d 3cbe b0bd
00000030: 0977 023f b292 b8be de78 de3e 62a8 09bf
00000040: b938 ed3e af01 d73e 1113 033f 4c74 75be
00000050: d981 c7be ecc4 c33e 7d2f 453f 141f 35bf
00000060: 83ad fbbe e0c7 bcbe c3ee 0b3f ff7d 9dbe
00000070: 980e 9cbe c13a 04be f225 0fbf 5a5d 663f
00000080: 8ef6 f53d 7555 283f ebf5 9abe a6bf 27bd
00000090: a85a fcbe 8783 bdbe 548a 043f cd7e 4bbe
000000a0: 8a91 a7be a3f4 db3d fcae b3be 0464 01bf
000000b0: 8a98 873f bc0d a4be 4329 fbbd d557 92be
000000c0: a294 ebbe c801 9f3e 1223 92be 937c 493f
000000d0: 34df 7cbe ae35 a9be bb09 4c3e 7612 e53e
000000e0: 20cb 11bf 9dcc b13e c49e 9c3e b347 293f
000000f0: cc2d e23e 0750 913e 4240 ff3e 472c 293f

stack.2.weight f4 [2, 64]
-0.52204484 0.039472993 -0.007596826 0.10997779 -0.26675922 -0.07884264 0.79691494 0.1370237
-0.45216024 -0.09462403 -0.3896163 -0.48031694 0.3613232 -2.7786255 0.23187524 -0.006710448
0.18824042 -0.20347868 0.13628677 -1.3738353 0.17926286 0.14934824 0.7444796 -0.16167666
-0.40498662 -0.13369434 0.78955644 -0.7070816 0.52151424 -0.5490453 0.13840747 1.0385264
-0.11259077 1.6654397 -0.20152727 -0.46737605 0.09408943 -0.8690756 0.2617176 -0.26654744
-0.47825024 -0.3751861 0.6767199 -0.029324377 2.05229 0.036870826 -0.19617257 -0.15629192
-0.26815224 -0.23514481 0.08061844 1.4280223 -1.735033 -0.65877056 -0.16180654 0.8951693
-0.015394568 0.5005122 0.14792784 0.68968505 0.35555652 -0.050821323 0.29488495 1.443089
0.4369199 0.04849351 -0.006336567 -0.09364194 0.26056767 -0.04862531 -0.90792376 -0.31248283
0.4418686 0.12502547 0.51403034 0.43099424 -0.55786675 2.6918676 -0.13265572 -0.14398378
-0.23860559 0.34786385 -0.18418056 1.3658446 -0.22090593 -0.292119 -0.92538714 -0.009505163
0.24040021 0.10570571 -0.70521617 0.5978025 -0.48627555 0.6228849 -0.014843432 -1.0305514
0.15654746 -1.549888 -0.005692601 0.39674976 -0.02440777 0.8118022 -0.42908368 0.45985964
0.5320161 0.32429683 -0.8111765 -0.08087551 -2.0424266 0.022622833 0.27983275 0.045691106
0.10199649 0.30700007 -0.06618914 -1.2769059 1.6137582 0.64445776 0.044956606 -0.94031674
0.00025707172 -0.34155378 -0.04763071 -0.70687294 -0.15179393 -0.09823859 -0.33926538 -1.2370212
00000000: bba4 05bf 6fae 213d ccee f8bb 093c e13d
00000010: aa94 88be 4078 a1bd 9e02 4c3f f14f 0c3e
00000020: 8c81 e7be 3eca c1bd ca7b c7be 1aec f5be
00000030: 5bff b83e 00d5 31c0 b470 6d3e 51e3 dbbb
00000040: 19c2 403e b75c 50be c28e 0b3e d6d9 afbf
00000050: af90 373e bfee 183e 3796 3e3f 918e 25be
00000060: 685a cfbe 2be7 08be 5f20 4a3f 4d03 35bf
00000070: f581 053f 3c8e 0cbf b0ba 0d3e 6fee 843f
00000080: fd95 e6bd 212d d53f 2a5d 4ebe ea4b efbe
00000090: f6b1 c03d bd7b 5ebf d9ff 853e e878 88be
000000a0: 37dd f4be 6418 c0be 843d 2d3f ad39 f0bc
000000b0: b858 0340 dd05 173d 76e1 48be fd0a 20be
000000c0: 404b 89be cdc9 70be 481b a53d 6fc9 b63f
000000d0: 9015 debf 30a5 28bf 9db0 25be d129 653f
000000e0: 8039 7cbc 9121 003f 657a 173e 338f 303f
000000f0: 810b b63e 052a 50bd 29fb 963e 24b7 b83f
00000100: f7b3 df3e 21a1 463d faa2 cfbb 58c7 bfbd
00000110: 2069 853e 552b 47bd b16d 68bf c0fd 9fbe
00000120: 9a3c e23e ad06 003e 7e97 033f 47ab dc3e
00000130: 5bd0 0ebf 8f47 2c40 e7d6 07be 7c70 13be
00000140: 0655 74be 361b b23e d499 3cbe ffd3 ae3f
00000150: 2a35 62be 9f90 95be 2ce6 6cbf 8bbb 1bbc
00000160: 792b 763e 3c7c d83d 0c89 34bf 9609 193f
00000170: 1cf9 f8be 6375 1f3f de31 73bc 1ce9 83bf
00000180: fa4d 203e bb62 c6bf 0089 babb c922 cb3e
00000190: cef2 c7bc 45d2 4f3f dbb0 dbbe b972 eb3e
000001a0: 3532 083f 3c0a a63e 43a9 4fbf 0fa2 a5bd
000001b0: 1eb7 02c0 8553 b93c 3d46 8f3e 9926 3b3d
000001c0: 89e3 d03d 1d2f 9d3e 2c8e 87bd a771 a3bf
000001d0: a18f ce3f 2ffb 243f 6b24 383d 99b8 70bf
000001e0: 95c7 8639 23e0 aebe 6b18 43bd a0f5 34bf
000001f0: de6f 1bbe 5031 c9bd 31b4 adbe b656 9ebf

stack.2.bias f4 [2]
0.13931479 -0.13680619
00000000: 89a8 0e3e ec16 0cbe
